CSNetPlus_model_mask/0.1_0.00598.pth (torch, 419701 bytes, 1 tensors)

weight f4 [102, 1, 32, 32]
00000000: 6dbf 44bc c0b5 283c fa91 b13b 7744 223c
00000010: 143e 47bc 4f10 513c 74ef b9bc df24 22bc
00000020: 5d90 79bc ce43 ac3c 2fc2 70bc 8c6c 6e3c
00000030: a89b ccbc 527e a0bc 846b abbc 3129 d9bc
00000040: ece0 873c d189 00bc 135e 7fbc 8a88 abbb
00000050: 363c 12bc 5e7a 433c 54e8 76ba 4259 d33c
00000060: 9bbc 163b b8cb f4bb 4125 afbc 03ab d93c
00000070: 49cf 3abb 0bbf e1ba d28e f2bc 3c0d 5cbc
00000080: a6b4 d1ba 8611 e0bc 890c db3b a38f e13c
00000090: e9bb f83b 9278 21bc 1351 6fbc fd9b a53c
000000a0: 2601 b13c 95c3 e7bc e9b1 c3bc d2d5 8bbc
000000b0: e149 e0bc 8892 10bc 0967 c53c ffad 143c
000000c0: aaf2 f3bb dd22 d43c ab49 9c3c 9c2f 55bc
000000d0: 691a 4e3c 4d62 b63c 7274 75bc 8176 f33c
000000e0: 1e1d 74bc 371e 153c 182e fbbc eb71 c63c
000000f0: aad9 623a 2a6d 443c ce79 313b 64c1 db3a
00000100: d903 67bc 3a80 2dbc f6d7 df3c a9a2 8b3b
00000110: 3562 513b 95c7 90ba df5a 15bc e569 e8bb
00000120: d415 613b a87f 73bb 74a0 e9bc 311a 63bc
00000130: 65c7 cbbc c82e 863c b5e2 93bc 4a3b 5d3c
00000140: d845 a33c c0db 1ebc 73d4 4fbc 72da ae3c
00000150: ff29 93bc 0aba 46bb 0814 ac3c 547d c43a
00000160: 1793 d03c c497 b53c 4ddc 2abc 6a4c 56bc
00000170: c72a 1f3c 308f 84bc bc40 7fbb a6ca 4bbc
00000180: 68aa b03c 3b4f 26bb a06b 03bc d2bc e83c
00000190: 1dc2 db3a f52e 273c 6669 8cbc 13b7 ca3b
000001a0: 2d20 a03c fa39 1dba 8085 82bc db6f 353c
000001b0: e79f e1bb c7e9 6b3c 730c f5bc 68f7 c5bc
000001c0: 0115 743c 3857 9bbc fbda f4bc 0ce8 d7bb
000001d0: bb3b 8cbc b003 9d3c ba89 1b3c dbf6 5b3c
000001e0: e59b e1bb 66a1 2c3c 79a3 8ebc aafe 20bc
000001f0: 598a d53c 2fd6 af3b 13e4 b43c d981 a43c
00000200: 9d44 65bc 363b d13c 3841 083c 12b5 83bc
00000210: 934f c8bc c4e4 f73b 7d3f 5d3c 15c6 63bc
00000220: d244 993c 4d4c 8d3c 6d97 c13c 80a3 273c
00000230: 892d ca3c be76 323c f6db 9d3c 2967 a23c
00000240: 31da a53c 119e 6a3b c705 cd3c 24de 4fbc
00000250: 615f 223b 6c30 663c e288 df3c fca6 a2bc
00000260: 5611 ceba b78a c93c a53b 503c 39d4 29bc
00000270: c777 cebc 44dc 943c 77bc 003d e9c3 50bc
00000280: b726 9bbc 1f06 81bc 61d4 64bc 7f4d c3bc
00000290: 1a63 e5bc c81b 433c ed4e f6bb cc02 7fbc
000002a0: 3ffa edbc 5fc4 4bbc 5ce0 83bc 5cc5 1dbc
000002b0: 3742 473c 9312 81bb 20db b83c 5a11 4f3c
000002c0: b7e6 233c 1be7 c73a bfe1 333c 3841 5bbb
000002d0: fae3 63bc 6520 d53b 20e1 b93c 9618 78bc
000002e0: d749 8b3c 6fb2 09bc 9f2c a2bc e94d fa3c
000002f0: b89f a2bb 2ee2 bb3c f294 82bc 54c2 a6bc
00000300: 2d45 afbc e885 ee3c 6b29 c13c 6c19 c13c
00000310: 0333 01bd cadc 383c 6c2c 5fbc 6e72 7bbc
00000320: 21ff 8f3c c145 62ba fade b2bc 05d1 833c
00000330: 68a3 d73b cd3b 8ebc 220d 9bbc 2b71 33bc
00000340: 7451 e0bc 8544 66bc bf54 933b f31f b1bb
00000350: c1d5 3a3c 446b 11bc 619a f7bc 96a1 a43c
00000360: 889c ebbc 31c4 97bc 6245 d73c cf63 02bc
00000370: 81f1 b1bc 4f2c 493c bceb 6a3b 62ff 62bc
00000380: c38a a53c 660b 4e3c 664c 56bb 23d5 0f3c
00000390: 830e 833a 9aac bd3c 7d97 3abb 85ff e4bc
000003a0: 319f b1bb 69ec d6bc 4f7a 583c a9be ea3c
000003b0: 7005 07bd abe8 36bc 519f 4abb a235 04bd
000003c0: 0a24 dbbc 6b80 8a3c 88ff b7bc c4de 023c
000003d0: 4236 bebc 9a1a ee3c 98fc 4ebc 075e 173b
000003e0: 894b 5a3b 718c d73c 6a66 86bb 4690 49bc
000003f0: 163c 69bc 352e 51ba c9a6 dfbb f9fa 61bc
-0.01200853 0.010297239 0.005419013 0.009904019 -0.012160797 0.012760236 -0.022697188 -0.009896486
-0.015232173 0.021028426 -0.0146947345 0.014552247 -0.024976566 -0.019591484 -0.02092529 -0.0265089
0.016586743 -0.007845358 -0.015586394 -0.0052347826 -0.008925488 0.01193103 -0.0009418775 0.025799397
0.0023000601 -0.007470574 -0.021380069 0.026570803 -0.00285049 -0.0017223073 -0.029609118 -0.01343089
-0.0015999272 -0.027352106 0.006684844 0.027534312 0.00759076 -0.009855406 -0.014606732 0.020215983
0.021606993 -0.028291503 -0.023888545 -0.01706973 -0.027378978 -0.008823998 0.024096983 0.009074687
-0.0074446993 0.02589553 0.019078096 -0.013011839 0.012579539 0.02226367 -0.014981376 0.029719593
-0.01489952 0.009101442 -0.030661628 0.024224242 0.00086536503 0.011988917 0.0027080658 0.0016766009
-0.014100038 -0.010589654 0.027324658 0.004261334 0.0031949405 -0.0011045808 -0.009115904 -0.0070927017
0.0034345286 -0.0037154946 -0.028518893 -0.013861225 -0.024875352 0.016379729 -0.018052438 0.013502905
0.019930765 -0.009695947 -0.012684929 0.021344397 -0.017964361 -0.003032329 0.021005645 0.0014990964
0.025460763 0.022167094 -0.0104285 -0.013079742 0.009714789 -0.016181558 -0.0038948497 -0.012438452
0.021565631 -0.0025376815 -0.008021265 0.028410349 0.0016766224 0.0102040665 -0.017140102 0.006186375
0.019546593 -0.0005997714 -0.015932798 0.011074032 -0.006885517 0.014398999 -0.029913163 -0.024165824
0.014897586 -0.018962488 -0.029889574 -0.0065889414 -0.017118325 0.019166797 0.009493286 0.013425554
-0.006885039 0.010536527 -0.017411934 -0.009826342 0.026066946 0.005366109 0.02208141 0.020081447
-0.013993409 0.02554093 0.008316331 -0.016077552 -0.024452006 0.007565113 0.013503906 -0.013902207
0.018709574 0.017248297 0.023631776 0.0102318525 0.024679916 0.010892568 0.019269925 0.019824581
0.020245643 0.0035799781 0.025027169 -0.01268724 0.0024776089 0.014049631 0.02728695 -0.019855015
-0.0015721719 0.024602277 0.012709533 -0.010365539 -0.025203599 0.018171437 0.031429734 -0.012742021
-0.01893936 -0.01574999 -0.013966651 -0.023840664 -0.028001357 0.011908479 -0.007516733 -0.015564632
-0.02904999 -0.012436955 -0.016098194 -0.009629574 0.012161783 -0.003938982 0.022565424 0.012638414
0.010003737 0.001525137 0.010979115 -0.0033455621 -0.013909334 0.006504106 0.022690356 -0.0151425805
0.017002983 -0.008404358 -0.019796668 0.030554729 -0.0049628876 0.022935 -0.015940163 -0.020356335
-0.02139529 0.029116586 0.02357932 0.023571692 -0.03154279 0.011283109 -0.013621431 -0.015347106
0.01757771 -0.000863161 -0.02183484 0.01609088 0.006580759 -0.0173625 -0.01892716 -0.010952274
-0.02738259 -0.014054422 0.0044961865 -0.00540542 0.011403502 -0.008875672 -0.03022498 0.020096581
-0.028761163 -0.018526169 0.026278201 -0.007958367 -0.021721603 0.01227863 0.0035846075 -0.013854833
0.020207768 0.01257596 -0.0032699346 0.008778843 0.0009998832 0.023153592 -0.0028471642 -0.027953872
-0.0054205884 -0.026235776 0.013212754 0.028655367 -0.03296417 -0.011163871 -0.0030917714 -0.03227771
-0.026750583 0.016906938 -0.022460714 0.007987682 -0.023219232 0.029065419 -0.012633465 0.0023096816
0.0033309183 0.026312085 -0.004101564 -0.012302464 -0.014235517 -0.00079796027 -0.0068253023 -0.013792747
