CSNetPlus_model_mask/0.1_0.0088.pth (torch, 419765 bytes, 1 tensors)

weight f4 [102, 1, 32, 32]
00000000: a579 2b3c 052f 7c3a f810 393c 938c b23c
00000010: f1dd 243c f312 133c 25da a83c d733 013d
00000020: 07ad 50bc 34b0 a3bb e89d 083d 3a83 22bc
00000030: ff7b 2b3c c60f 8abc c3d8 903c 4797 193c
00000040: 204c 36bc 60f2 04bc 09c6 be3c 288a e4bc
00000050: 375e 98bc e5d6 8dbc 865e e03a 299e e33c
00000060: 3aa8 733c 29be 9a3c 7ba3 973c da57 52bc
00000070: d03e b13b 260f acbc 0e53 8bbc e9c8 d73c
00000080: e7ab 71bb 7db7 773c e118 e8bc 3aed 7a3c
00000090: 8000 b3bc 350d 6f3c 97bb ad3b 68d8 0b3c
000000a0: bd3e 7d3c 61a2 d93a 28c8 cfba d908 b5bc
000000b0: 41f9 99bb da5e 4bbc 943f c73b 2720 7ebc
000000c0: ef86 c2bb 41a0 133c 3465 e73c 8390 e23a
000000d0: 9677 3d3c ba3c 373c 627d 663a 3264 a0bc
000000e0: 4454 22bc 6b93 b1bc 0723 4bbc b1cf cf3b
000000f0: 5104 abbc 0568 993c f0dd ee3b 8cfe a6bc
00000100: 40d3 823c 783c f4bc 46eb 97bc 56e6 893c
00000110: acb1 3e3c 19be 0cbc a5a5 60bb 6ed1 b63c
00000120: 8c55 cebc 315f 1ebc 0d8c b53c 4455 b7bc
00000130: 57b7 d8bc c094 acba fa72 cebc fc48 7cbc
00000140: c3d9 a23c db36 6a3c b094 f63b da76 b437
00000150: 57fc a4bc 8da2 94bb bd49 f03c 75b0 02bd
00000160: 14a8 aebb 0bb7 a23a 7319 db3c 5197 dfbc
00000170: 64be dfbc 3df3 86bc 84be 95bc 0bd0 61ba
00000180: c10e d43a 39ee ce3c 4680 c9bc 5163 ed3c
00000190: 3338 22bc 9867 80bb ac2e d8bc 09f8 38bc
000001a0: 1016 ef3b 8abd a8bc a3e9 a63c 3bac 983b
000001b0: aa6f e8bb 419f 12bc 0004 b4bb 902a f03c
000001c0: ec96 bf3c 34d9 543c 44c8 c03c c6aa 7b3c
000001d0: a4e6 1dbc 9fb8 56bc 8ffb 97bc 45d5 06bd
000001e0: ac06 ed3c 0444 a83c 1c7a dc3c 68b2 94bc
000001f0: 4489 153c 8f8c ddbc 9b61 74bc 3f2e 6f3c
00000200: ad67 f4bc 79f9 3abb 83a3 fe3c 19dc e5bc
00000210: 8d64 90ba 3b0d d5bc 0dc6 8ebc 7851 d8ba
00000220: cf78 6dbc 96f5 aebc 9623 7abb a115 353c
00000230: b04e 88bc 6500 a6bb 05b0 a03c 7f74 e13c
00000240: 43dc a73b 9ebe 21bc 8d25 123b 7f64 273c
00000250: 0cec 1c3b d644 fdbc ef7b 9ebc c9aa 5c3b
00000260: 1586 023c d05b 5dbb 69c0 52bc bc38 893c
00000270: 5ddb d23c 65d7 febc c287 bebc 413c 9b3c
00000280: fc60 373c b0d9 84bc 074c 32bc 29ea 533c
00000290: 4e41 103b c4a0 723c 72cb c33c a07e 9bbc
000002a0: 2d23 e4bc 19e7 a23b 4301 b93c 68a3 6a3c
000002b0: 72dc cf3c 2758 fb3b ec4d 803b aa93 1fbb
000002c0: fa45 8cbb 394e c13b c7dd 60bb 4d46 ef3c
000002d0: 63a6 913b d1eb c53b 3e9f f6bc aef8 babb
000002e0: 13f2 b63c b488 75bc 4a59 243c cbf5 aebc
000002f0: 767a d6bb 6f17 483b 48dc 9dbc 054a 7c3c
00000300: b7b3 bf3c b935 773c c89d c73c 4694 73bc
00000310: 0767 18bc 6610 6c3c ca42 f5bc e3cb fbbb
00000320: 27b5 aeb9 865b 013d aba0 f13c 1cb7 b93c
00000330: b431 18bc 5dee abbc 1667 673b 345a d53c
00000340: 2fa5 58bc 5a9f 9f3c 5b75 da3c 8eed 963c
00000350: e9b6 f5bc 82f5 53ba 0954 ecbb ca0c 1c3c
00000360: fb94 863c f381 e0bc 13ab 9fbc 851b 533c
00000370: ba85 e7bc 0c18 1fbc ab11 e03c bd7d 3e3c
00000380: b66d 75bc 9bfd e13c d428 a63c def0 86bc
00000390: 0132 e83b a1f7 a3bc 7213 cfbc d9b1 043d
000003a0: 6510 e6bb 88df b4bc 7f98 0e3d 2334 063d
000003b0: 63b6 cbbc 25e2 193b 217b 1b3c 9fe8 96bb
000003c0: 41af 9b3c 382d ff3c 335a 9f3b 7891 cdbc
000003d0: caec 823c 1bb1 c8bc 75eb b13c af73 d03c
000003e0: e6be 223c a909 c53b 0cdf cbbc 2179 40bb
000003f0: 7afc 30bb a27c 39bc 7c10 933c 1d94 e8bc
0.010466014 0.00096200436 0.01129555 0.021795547 0.010062681 0.008976686 0.020611832 0.03154358
-0.012736565 -0.0049953703 0.033353716 -0.009918982 0.010466575 -0.016853224 0.017681485 0.009374446
-0.011126548 -0.008114427 0.02328779 -0.02789791 -0.018599613 -0.017314384 0.0017118014 0.027785378
0.014871651 0.018889504 0.01851057 -0.012838328 0.005409099 -0.021003317 -0.017007377 0.026340919
-0.0036876143 0.015119431 -0.028332176 0.015315348 -0.021850824 0.014590551 0.0053019035 0.008535482
0.0154568525 0.0016604179 -0.0015852498 -0.022098945 -0.004698903 -0.012412751 0.006080577 -0.015510595
-0.0059364955 0.0090103755 0.0282465 0.00172855 0.011564156 0.011183912 0.0008792487 -0.019579027
-0.009907786 -0.02167674 -0.012398488 0.0063418974 -0.020876082 0.018726358 0.0072896406 -0.02038505
0.015969872 -0.02981399 -0.018544804 0.016833466 0.01163904 -0.008590245 -0.003427842 0.02231666
-0.025187276 -0.00966625 0.022161508 -0.022379525 -0.02645461 -0.001316689 -0.02520131 -0.01539826
0.019879228 0.014295305 0.007525049 2.1513017e-05 -0.020139856 -0.004535979 0.029332036 -0.031906564
-0.005330095 0.001241417 0.026745534 -0.027293833 -0.027312465 -0.016473407 -0.018279321 -0.00086140697
0.0016178713 0.025260078 -0.024597298 0.028978022 -0.009901094 -0.0039185993 -0.026389442 -0.011289605
0.007296331 -0.020598192 0.020375079 0.0046592033 -0.0070933895 -0.008949102 -0.005493641 0.02931717
0.023387395 0.012991238 0.023532994 0.01536054 -0.009637509 -0.013105541 -0.01855257 -0.032918233
0.028933845 0.020540245 0.026913695 -0.018151477 0.009126965 -0.027044563 -0.014915849 0.014598428
-0.029834593 -0.0028530045 0.031083828 -0.028059052 -0.0011016295 -0.026007285 -0.017428422 -0.0016503772
-0.014494135 -0.021357339 -0.0038168184 0.01105252 -0.016639084 -0.005065965 0.019615183 0.02752137
0.005122693 -0.009872107 0.0022300214 0.010216831 0.0023944406 -0.030916613 -0.019346206 0.0033671132
0.007966538 -0.0033776648 -0.012863257 0.016750686 0.025739366 -0.031108567 -0.023258094 0.01894963
0.0111925565 -0.016217083 -0.010882384 0.012934246 0.002201158 0.014808837 0.023900721 -0.018981278
-0.027848804 0.0049713966 0.02258361 0.014321186 0.025373671 0.0076704207 0.003915539 -0.002434949
-0.004280803 0.0058992174 -0.0034311877 0.029208327 0.0044448837 0.0060400744 -0.03010523 -0.0057059145
0.022332227 -0.014986206 0.010031054 -0.021357438 -0.00654536 0.0030531546 -0.019270077 0.015398507
0.023401124 0.015088492 0.024367228 -0.014866894 -0.009301907 0.014408207 -0.029939074 -0.0076842173
-0.00033322835 0.031581424 0.029495558 0.022670321 -0.009289194 -0.020987684 0.0035309247 0.026043989
-0.013222977 0.019485164 0.026667288 0.018423822 -0.029994445 -0.0008085595 -0.007212166 0.0095245335
0.016428461 -0.027405715 -0.019490754 0.012884979 -0.028262008 -0.009710323 0.027352175 0.011626658
-0.01497977 0.027586749 0.02028314 -0.016472276 0.007086039 -0.02001554 -0.025277827 0.03239617
-0.0070209973 -0.022079244 0.0348134 0.032764565 -0.024867242 0.002348074 0.009489805 -0.0046053673
0.019004466 0.031149492 0.0048630475 -0.025093779 0.01598205 -0.024498513 0.02171872 0.025445787
0.009933209 0.0060131145 -0.02488663 -0.0029369073 -0.0027005957 -0.011321219 0.017952196 -0.028390938
