CSNetPlus_model_mask/0.2_0.64.pth (torch, 841593 bytes, 1 tensors)

weight f4 [205, 1, 32, 32]
000000 9b 61 21 3e 49 95 9c be 5f 8b b6 be 4b 83 d1 3e
       0.1575989 -0.30582646 -0.35653207 0.4092048
000010 b0 a5 38 3e 9c a4 e7 be 13 bf 38 bf 06 09 d1 be
       0.18031955 -0.45242774 -0.72166556 -0.40827197
000020 a5 83 6c 3e 62 68 7d be c8 16 5d 3e 13 de 2c bf
       0.23097093 -0.2474685 0.21590722 -0.6752636
000030 ef 81 5c bf d6 ce 4f bf af 97 92 bf 67 9b 89 bf
       -0.8613576 -0.8117498 -1.145254 -1.075055
000040 90 c4 4d bf ba ef de 3e 3e 96 1d bf 1a af 90 bf
       -0.80378056 0.43542272 -0.61557376 -1.1303437
000050 6b f5 82 bf d6 fc 82 bf fc 93 27 bf 36 1e 56 3f
       -1.0231146 -1.023341 -0.6546018 0.8363985
000060 e2 4e 51 3f 0f 6b e7 be ac ed 06 3f 78 34 8a 3f
       0.8176099 -0.45198867 0.5270641 1.0797262
000070 70 4c 5a 3f ab 85 81 3f 8f 58 9d 3f 45 20 7c 3f
       0.85272884 1.0118917 1.2292651 0.9848674
000080 a9 25 0d bf 86 40 dc 3e a7 ea 00 3f b0 94 81 be
       -0.5513559 0.43017977 0.5035805 -0.25308752
000090 3d 70 e8 be e1 3b f9 3e 0f 3b 3c 3f ea ec 6b 3f
       -0.4539813 0.48678496 0.73527616 0.9215838
0000a0 bd ee 89 3f 0c 31 41 3f 7e 56 57 3f 5d 6b 2f be
       1.0775982 0.75465465 0.8411635 -0.171308
0000b0 6b 5d 59 3d c6 20 67 bf 4c 38 91 bf 39 6c 38 bf
       0.053067606 -0.90284383 -1.1345305 -0.72040135
0000c0 ae a8 14 bf ac 54 07 3f a9 39 1d bf 67 4b 8e bf
       -0.58069885 0.52863574 -0.6141611 -1.1116761
0000d0 87 8b 79 bf 06 3c 84 bf a6 d0 42 bf 4f 6e e9 3e
       -0.97478527 -1.0330818 -0.7609962 0.4559197
0000e0 66 d5 fb 3e 95 ca 1a bf b1 fa e8 be 0b e2 9d 3e
       0.49186248 -0.60465366 -0.45503762 0.3083652
0000f0 22 78 15 be 0d d3 0b 3f 71 ad 82 3f 45 83 33 3f
       -0.14596608 0.5461891 1.020918 0.70122176
000100 42 58 8b bf 35 55 35 be 7d 39 5b 3f 0c 86 88 3e
       -1.0886309 -0.17708285 0.85634595 0.2666477
000110 3a 72 ed be 87 7d 40 3f 44 c5 88 3f 28 12 85 3f
       -0.4637621 0.7519154 1.0685201 1.0396166
000120 9b c2 49 3f 5e 00 ca be b5 8a d3 3e c0 e6 98 3e
       0.7881257 -0.39453405 0.41316763 0.29863548
000130 2a 96 7e be 3c 77 39 bf c2 0e 0b bf 7d 5d 58 3e
       -0.2486197 -0.7244756 -0.54319394 0.21129413
000140 41 03 1a bf 99 1f 3a 3e 95 d2 0b bf 8e c3 8f bf
       -0.60161215 0.18176116 -0.546182 -1.1231554
000150 a4 58 92 bf 70 50 89 bf 6f 54 46 bf 93 96 20 bf
       -1.1433301 -1.0727673 -0.77472585 -0.6272976
000160 ad cd 93 be ef 3e 78 3c ac 47 2b bf 13 7c 1f bf
       -0.28867856 0.015151723 -0.6690624 -0.622987
000170 67 98 2e 3e 54 2d 94 be ac f7 6e 3e 8f e9 35 be
       0.17050324 -0.28940833 0.23336667 -0.17764877
000180 72 d2 01 bf fc bd d7 3e 15 98 49 3f 98 91 4a 3f
       -0.5071174 0.42137134 0.78747684 0.7912841
000190 58 ed 10 be b3 b9 40 3f 04 32 83 3f 43 65 79 3f
       -0.1415304 0.75283355 1.0249639 0.9742014
0001a0 67 7a da 3e 2a 3c 1d bf 07 1d 00 bf f9 cd bf be
       0.4267151 -0.6141993 -0.5004429 -0.37461832
0001b0 67 1e 04 3f f3 9c 3f 3f 03 7f 29 3f f4 4a 44 3f
       0.5160889 0.7484886 0.6620943 0.7667687
0001c0 99 03 de be ae 57 60 be 40 b4 ca bd 71 a1 4e bf
       -0.4336212 -0.21908447 -0.09897661 -0.8071509
0001d0 cb b3 5e bf 21 f6 0a bf 88 b1 0e 3f d9 f3 3e 3f
       -0.8699309 -0.5428181 0.5573964 0.7459083
0001e0 81 fe 0b 3f 56 a6 99 bc ce 44 f1 3d 45 b7 e8 be
       0.5468522 -0.018756073 0.117807016 -0.45452324
0001f0 cd 62 ab 3e 03 e4 36 bf 68 d4 08 bf 01 8e 50 3e
       0.33473817 -0.7144167 -0.53449106 0.2036667
000200 55 6f 2c 3c 49 49 ac be 69 9f dd be b9 14 c0 3e
       0.0105245905 -0.33649662 -0.43285683 0.3751581
000210 46 d4 16 3f 36 6a 7b 3f 33 d4 95 3f fa a6 6c 3f
       0.58917654 0.9820894 1.1705383 0.92442286
000220 9d f9 f8 3c 27 d9 e0 3e 7f 6e 32 3f 2a e4 27 3f
       0.030392462 0.43915674 0.69699854 0.65582526
000230 d3 da 8c 3f f0 8e 99 3f c4 9b 60 3f 1c 5e 87 3f
       1.100428 1.1996746 0.8773768 1.0575595
000240 28 7e 62 3f 5e 4f 41 3f 62 61 3e be f5 e3 e6 be
       0.8847375 0.7551173 -0.18591836 -0.45095792
000250 0d 3f 1c 3f cf f0 20 3f 79 bc 35 3f 29 7b 78 3f
       0.6103371 0.62867445 0.7099071 0.9706293
000260 81 f5 8f 3f 01 2d 88 3f e1 e7 1d 3f 38 26 bf bd
       1.1246797 1.0638734 0.61681944 -0.093334615
000270 d9 57 d2 3e 9e a7 c1 bd 24 03 99 3e 09 ba 91 be
       0.41082647 -0.094557986 0.2988521 -0.28462246
000280 25 c4 80 bf c7 96 4b bf 6d 0d 5d bf a6 a6 68 bf
       -1.0059859 -0.7952694 -0.8634861 -0.90879285
000290 86 0c 0b bf 13 d6 0e 3f 6b 11 8b 3f e8 43 8e 3f
       -0.54315984 0.557954 1.086469 1.1114473
0002a0 51 86 13 3f c9 4a a3 be 19 98 d1 3e 65 3a 87 be
       0.57626826 -0.31892994 0.40936354 -0.2641174
0002b0 d7 6d 15 3f 9f 36 10 3f 2d a3 bb be 88 cf 10 3f
       0.5837073 0.56333345 -0.3664793 0.5656667
0002c0 b6 ef 81 3f fe 93 8d 3f 70 44 db 3e e5 e8 f7 3e
       1.0151279 1.1060789 0.4282565 0.48419872
0002d0 7d ca fb 3e 3d 92 0d be 93 01 00 bf 51 a7 be be
       0.49177924 -0.13825317 -0.500024 -0.37237027
0002e0 8e 08 27 3f b8 c0 42 3f 98 c8 43 3f d5 d0 61 3f
       0.6524743 0.76075315 0.76477957 0.8820928
0002f0 3f d8 84 3f ac e4 56 3f f4 a6 91 3f db 2c dd 3e
       1.0378493 0.83942676 1.1379075 0.43198285
000300 ed 6e c6 bf 64 26 9a bf 09 76 b3 bf 33 fa 99 bf
       -1.5502602 -1.2042966 -1.4020396 -1.202948
000310 9d cd 43 bf 3b 8a 15 bf b0 e3 2c 3f ca 5b 94 3f
       -0.76485616 -0.5841405 0.67534924 1.1590512
000320 d2 fb fd 3e b9 0f 63 bf 00 64 88 bf b2 ca 97 bf
       0.49606186 -0.88695866 -1.0655518 -1.1858733
000330 f7 9b 69 bf 3e 18 10 bf 22 63 49 bf 5f 1e cc be
       -0.9125361 -0.5628699 -0.7866689 -0.3986692
000340 10 c7 33 3f 79 6e 57 3f 63 f7 35 be 20 e6 30 bf
       0.7022562 0.8415294 -0.17770152 -0.6910114
000350 6a 21 2f bf ee 08 06 3f 8d 5c f5 3d 00 9a 04 bf
       -0.6841036 0.52357376 0.11980543 -0.51797485
000360 1c 8a fd 3e 17 c5 7a be 7a 60 03 bf 89 81 0a 3f
       0.49519432 -0.24489246 -0.51319087 0.54103905
000370 c2 c2 3d 3f 95 bb 88 3f 12 6b 65 3f 42 24 03 bf
       0.741253 1.0682245 0.896165 -0.512272
000380 bb 32 97 bf 0d a9 63 3f f0 bd 02 3f b2 69 37 bf
       -1.1812357 0.88929826 0.5107107 -0.71645653
000390 c6 43 80 be 65 cb 4d bf 87 c9 d2 3e b1 df 03 3f
       -0.25051707 -0.8038848 0.41169378 0.515132
0003a0 e1 8d 31 bf 52 72 7d bf 9a 22 5e bf 4d 31 42 bf
       -0.69357115 -0.99002564 -0.8677155 -0.7585648
0003b0 61 67 e0 be 58 c8 db 3e d2 1c 0e 3f e3 ce 19 3f
       -0.43828872 0.42926288 0.55512726 0.6008131
0003c0 f6 ae 3d 3f a0 4e 50 3f c5 2f 85 3e de 2e 87 bf
       0.74095094 0.8136997 0.26013008 -1.0561178
0003d0 9e 47 3e bf 0c 31 34 3f 37 28 35 be e8 4b 5a bf
       -0.7432803 0.7038734 -0.17691122 -0.85272074
0003e0 24 c5 e5 3e a5 f2 2b 3e eb e5 25 bf 4e dd 19 bf
       0.4487697 0.1679178 -0.6480395 -0.6010331
0003f0 ed 3d 07 bf 9f 30 bd 3e 8a dc 37 3f cc 07 22 bf
       -0.52828866 0.36951157 0.7182089 -0.6329315
