CSNetPlus_model_mask/0.2_0.007.pth (torch, 841653 bytes, 1 tensors)

weight f4 [205, 1, 32, 32]
00000000: 30ff c83b c210 04bd 23d6 a2bc 9733 8abc
00000010: 5dcd 023d bbdb 8dbc 8654 3cbc 0d3d d43b
00000020: 009a 0e3c 6451 8fbc b9ac bdbb 6e25 a63c
00000030: 4746 30bc 7f7d 6abc 928f 6ebc fa91 ad3c
00000040: 77c7 b2bc b1bd f93b c442 123c 73ae 69bc
00000050: a3cd 49bc 1b90 13bc eb20 55bc fa5c 863c
00000060: 572f 053d 1600 823c bd0f bf3c f182 1d3a
00000070: 5eed 723c dc0f b2bc 58f6 f5bb ac84 10ba
00000080: c5e8 383b b2b6 7bbc a36f 93ba 41c2 e9bc
00000090: 981e 8ebc d73e f8bc ee34 ef3c 6d78 983c
000000a0: 05b7 b2bb 3790 793c bdf6 f6bc c224 8fbc
000000b0: 5de0 bd3c 53e8 ae3c 4281 d53c a81e 7abc
000000c0: de3b 6cbc efe4 ba3c 8e09 453c d8a4 e0bc
000000d0: 274c 88bc 4f3a 04bd 5b39 57bc a69b 1839
000000e0: 98ce 013c de39 023c 466f e2bc 253f b5bc
000000f0: 03ac 863c a842 853b 15a0 bf3c 3161 fe3c
00000100: 97ff b2bc 3211 bf3c 9ea3 ddba bf99 ad3c
00000110: ea93 2f3c 2ff4 f63b c5e1 3a3b 16bb 613c
00000120: d39d 0d3c 42db d63c 61b5 863c abda 59ba
00000130: 2d70 b6bc 7a19 98bb 443b b3bc 9abe c93b
00000140: 764b feba 57eb 983c 7f61 e1bc 2425 67bb
00000150: b384 f43a 1c1d b13c 3ff3 e73c 8e12 47bc
00000160: 6c07 69bc 8da7 7abc 1770 953c 2825 993c
00000170: 2b4f 30bc 6bb9 cbbc cbc2 143c 3d9c fb3c
00000180: 142b a4bc bd13 7c3c 780d 213c 6204 7fbb
00000190: 3309 ffbc 636e 10bc 4a44 8d3c 9650 4f3a
000001a0: f892 e93c 3715 cf3c 9f6c f4bc b7cf 4dbc
000001b0: 1f24 183b 98f7 c03c 15e7 583c 244b d6bc
000001c0: eac3 dbbc a117 98bb e7ae ac3c 9eae 883c
000001d0: 32c8 08ba fb95 f6bc 119f c43c 9065 423c
000001e0: d55d 71bb abd1 903c 0171 2d3c cbca b5bb
000001f0: 9cc8 adbc 865e 213a 9249 263c 6097 cf3c
00000200: 2cda dabc 799c 493c 0e63 a139 785c b43b
00000210: 4afb 93bb eaee c93c dd02 f63c 593c 953c
00000220: 9e04 53bb bb5e 66bc a613 d13c f0a3 023c
00000230: db56 ebbc 1f2d a1bc e1ec 8e3b b20b df3c
00000240: c66b 923b f355 50bc 014c 5b3c f2a9 1d3c
00000250: 27e9 80bc 828a e2bb 186d 55bc 5bea 1b3c
00000260: 3459 533c e091 cfbc 5dde 7e3c c5f6 c0bc
00000270: 901a ee3c 5bf9 8cbc a8fe aa3b 2ad7 b13c
00000280: 7b9a 14bc 45cb f03c 7351 9a3c f641 bb3c
00000290: 25c3 a73c 661d cc3c a73c aabc c8dc c53c
000002a0: 46d7 933c 50e1 d1bc 3174 e43c cb39 283c
000002b0: e794 fb3b ce7d 00bd 6c34 8a3c 478d 47bc
000002c0: 5eb5 dfbb a50b d83b e38e f1bb be85 c23c
000002d0: 4e57 8d3c 9e4d c83a 08f5 b43c 9711 c73c
000002e0: 75b1 a83c 54a2 59bb 9a98 b6bc 40b2 2dbc
000002f0: 7b4b 70ba 5896 ce3c eb4c a2bb 1c6e 383c
00000300: da95 93bb 1996 18bb 82c0 893c 5935 a83c
00000310: bf48 a0bc 1382 b9bb b433 e6bb fa2d 4b3c
00000320: a81c ffbb 2680 60bc 62a4 d03c 920e a9bc
00000330: 1da8 d33c 0e29 adbb dba0 793c 7b85 ae3c
00000340: 0cea 9ebc 445f d43b f92a 95bc 641b fbbb
00000350: 271c b93c fbc3 8f3c fca1 eabc b259 9cbc
00000360: 59b1 83bc db31 8cbc 0de3 203a 0bfc efbc
00000370: 50be b23c 08fb 353b f32a 6c3c 82d4 b13c
00000380: f69e 553c f4cc 223c 3308 8abc 807c e7bc
00000390: 40b5 313c 5f57 c7bc 3904 d63b dcab e7bb
000003a0: 0fe9 a43a 6f02 64bc e945 943c 6cd2 0abc
000003b0: 949e a4bc 84d5 89bc b18d cf3c 3076 ea3c
000003c0: d8ec 8cbc 7d66 a53b ddb3 9ebc 17b8 c5bc
000003d0: a1ec 1fbc 269a acbb e9f3 5dbc 2dda 45bc
000003e0: f9ee c03c d279 5d3c 200d d43c 1c80 abba
000003f0: d68b 923c d429 fd3b 0bca 5dbc 738d f33c
0.0061339363 -0.032242544 -0.019877499 -0.016870303 0.03193413 -0.01731669 -0.011494761 0.0064770044
0.008703709 -0.017494865 -0.0057884124 0.02028152 -0.010758943 -0.014312147 -0.014560597 0.021187771
-0.021823628 0.00762149 0.008927051 -0.014262783 -0.012317094 -0.009006525 -0.013008337 0.016401757
0.03251585 0.015869182 0.023322934 0.00060085865 0.014827101 -0.021736078 -0.007506173 -0.0005512934
0.0028214913 -0.015363382 -0.001124848 -0.02853501 -0.017348573 -0.030303402 0.029200044 0.018612111
-0.0054539465 0.015232137 -0.03014695 -0.017473582 0.023178274 0.021351015 0.026062611 -0.015266098
-0.01441857 0.022814242 0.012026204 -0.027422354 -0.016637875 -0.03228217 -0.013136233 0.00014553833
0.007922791 0.007948367 -0.02764095 -0.022124836 0.016439443 0.004066784 0.023391763 0.031052204
-0.02185039 0.023323629 -0.0016909724 0.021191476 0.010716418 0.007536433 0.0028515917 0.013777515
0.008643585 0.026227597 0.01644391 -0.0008310477 -0.022270286 -0.004641709 -0.021878846 0.0061567547
-0.0019401151 0.018666906 -0.02751231 -0.003526994 0.001865527 0.021620326 0.028314231 -0.01215042
-0.014222961 -0.015298736 0.018241925 0.018694475 -0.010761063 -0.024868688 0.009079645 0.030714149
-0.020040073 0.015385565 0.009829871 -0.0038912524 -0.031132316 -0.008815381 0.017244477 0.00079084316
0.028512463 0.02527867 -0.02983695 -0.01256173 0.002321489 0.023555562 0.013238688 -0.026158877
-0.026826818 -0.0046414887 0.021079494 0.016684826 -0.00052178197 -0.030100813 0.02400163 0.011865035
-0.003682961 0.017678102 0.010586024 -0.0055478564 -0.021213822 0.00061557477 0.0101493765 0.025340736
-0.02671536 0.012305372 0.00030782114 0.005504187 -0.00451604 0.024650056 0.030030662 0.018217253
-0.0032198797 -0.014060671 0.025522064 0.007973656 -0.02872794 -0.019674836 0.0043617343 0.027227256
0.004468414 -0.012715804 0.01338482 0.009623038 -0.015736176 -0.006913484 -0.013026498 0.009516324
0.012899686 -0.025338113 0.015555945 -0.023555169 0.0290654 -0.017208746 0.0052183457 0.021709044
-0.009070034 0.029393801 0.018837666 0.022858601 0.020478794 0.024916362 -0.020780874 0.024153128
0.018046986 -0.025620133 0.027887436 0.010267685 0.0076776627 -0.031369977 0.0168707 -0.012179679
-0.0068270406 0.006593185 -0.0073717698 0.023745414 0.017253544 0.0015281921 0.022089496 0.02430038
0.02059243 -0.0033208327 -0.022289563 -0.01060158 -0.0009166521 0.025218174 -0.004953017 0.011256721
-0.0045039477 -0.0023282825 0.016815428 0.02053325 -0.019565938 -0.005661258 -0.0070252065 0.012401098
-0.0077853985 -0.013702428 0.025469009 -0.02063683 0.025836999 -0.005284435 0.015236105 0.021303883
-0.019398712 0.006481083 -0.018208968 -0.0076631773 0.022596432 0.017549505 -0.028641693 -0.019085739
-0.016075777 -0.017113617 0.0006137349 -0.029294988 0.021819264 0.0027768034 0.014414537 0.021707777
0.0130383875 0.00993656 -0.016849613 -0.028257608 0.010846436 -0.024333654 0.006531265 -0.007070048
0.0012581664 -0.013916596 0.018099742 -0.00847302 -0.020095147 -0.016825445 0.025336118 0.02862081
-0.01720278 0.005047618 -0.019372875 -0.024135632 -0.009761007 -0.0052673994 -0.013546922 -0.012075943
0.023551451 0.013517814 0.025885165 -0.0013084444 0.017888945 0.0077259336 -0.01353694 0.029730534
