CSNetPlus_model_mask/bin_0.01_0.00694.pth (torch, 42869 bytes, 1 tensors)

weight f4 [10, 1, 32, 32]
000000 1d b3 2b 3b 03 e7 ba bb 28 ec 16 37 d0 c9 de bb
       0.002619929 -0.0057038083 8.995681e-06 -0.0067989603
000010 25 7c 02 3d b6 a9 7b 3b 44 4e ef 3b 1c 6c 1c 3c
       0.031856675 0.0038400716 0.007303031 0.00954726
000020 0d df 9c 3b 54 52 cc 3c c6 41 3b bb 6e fb b8 bc
       0.004787332 0.0249416 -0.002857314 -0.022580829
000030 54 d9 8f 3c 9a 30 60 3c 50 af bd 3b a8 1b 0c 3b
       0.017559685 0.0136834625 0.005788721 0.002137879
000040 09 df 2f bc 32 74 aa bc 43 75 88 3a 6c 3d 04 3b
       -0.010734328 -0.02080736 0.0010410923 0.0020178212
000050 9f 10 b8 3c 72 b5 f6 3c c1 cd c3 ba 52 d4 ab bc
       0.022468863 0.030115817 -0.0014938639 -0.020975266
000060 a8 f3 c0 3c c3 d3 b3 bc 27 18 b6 bc 7f ee a1 3b
       0.023553684 -0.021951562 -0.022228314 0.004941761
000070 80 10 a8 3b 08 1e b5 bb 1a 85 3f bc cd de c8 3c
       0.00512892 -0.0055272616 -0.011689449 0.024520302
000080 9f 6c eb bc 46 49 ed bc b0 c7 59 3c c3 08 b6 3c
       -0.028738318 -0.028965604 0.013292238 0.022220975
000090 e2 6b 6c bb d2 72 27 3c 0d a3 62 3c ac 64 e5 3c
       -0.0036075045 0.010220246 0.01383282 0.028002106
0000a0 e2 5b b2 bc 2b a2 65 3b 36 55 ee 3c 7c 0e 96 bb
       -0.021772329 0.0035039287 0.029093366 -0.0045793634
0000b0 b1 15 a6 b9 5c 16 1b bb 63 5a ae bc 9b a4 e8 3c
       -0.0003167815 -0.002366445 -0.021283334 0.028398803
0000c0 41 ec 74 3c b3 9b f4 bc bd 33 9b 3c 1a 64 78 3c
       0.014948905 -0.0298594 0.01894557 0.015160585
0000d0 21 af 93 3b 5e 45 d7 bb 92 26 ef bc b8 54 ce bc
       0.004506961 -0.0065695485 -0.029193196 -0.025186881
0000e0 8e 30 67 bc ce 55 7a 3c c2 41 f4 bb 70 1a 87 3c
       -0.014110697 0.0152792465 -0.007454128 0.016492099
0000f0 d3 65 4a bb 5a 3e ed bc 08 51 ef 3c 98 af 97 3c
       -0.0030883446 -0.028960396 0.029213443 0.018516347
000100 62 08 e1 3c a9 ef 7c 3c 53 95 02 3d 48 56 96 bc
       0.027469818 0.015437999 0.031880688 -0.018351689
000110 51 20 96 3c a6 39 07 3c 2d ca f5 3c 05 1d e6 3c
       0.018325957 0.008253491 0.030003631 0.02809001
000120 df 17 e3 3c 9a 3e 59 3c 89 4f 93 bc 5f ae 11 3c
       0.027721344 0.013259554 -0.017982261 0.008891671
000130 79 eb 18 bc 6f f8 90 bc 4a 50 e7 bc 08 dc b9 bc
       -0.009333485 -0.017696587 -0.028236527 -0.022687927
000140 86 56 30 bc 64 76 b3 bb fb 58 ca 3c ca 70 cd bc
       -0.010762816 -0.0054767597 0.024700632 -0.025078196
000150 69 51 71 3c 7c 03 a3 3c 62 5d b5 3b 47 c1 0c bc
       0.014728882 0.019899122 0.0055348137 -0.008591003
000160 3b fe e8 3c 22 8f 24 3c f1 79 b5 3c 27 8d a3 ba
       0.028441539 0.010043891 0.022152873 -0.001247798
000170 32 c7 16 3c ae e1 b5 bc a6 b7 e7 bb 41 9a af bc
       0.009202765 -0.022202339 -0.007071453 -0.021435859
000180 1f a5 d0 bc f4 66 78 3c d3 75 cf 3b 76 be 6d ba
       -0.02546936 0.015161265 0.0063311844 -0.00090692134
000190 b4 3c 9c bc 39 b0 d8 3c e4 2e a0 bb ed 2c df bc
       -0.019071914 0.026451217 -0.0048884023 -0.027243102
0001a0 84 36 21 bc 35 72 ee bc 57 25 88 3c d8 92 78 3c
       -0.009839658 -0.029107193 0.016619368 0.015171729
0001b0 26 fc 88 bc af 19 84 3b 68 6c 70 bb 87 21 f5 3c
       -0.016721796 0.004031382 -0.003668571 0.029923214
0001c0 20 a4 eb bb c3 eb 40 3c b9 d9 17 3c e5 20 8f 3c
       -0.007191196 0.01177496 0.009268218 0.01747174
0001d0 0a c9 83 3b 4b 02 c2 bc 86 44 da 3c 51 11 fe 3b
       0.0040217685 -0.023682734 0.026644003 0.007753529
0001e0 45 02 f6 bb 7d a0 71 bc 88 56 b8 3c 25 eb c1 3c
       -0.007507595 -0.014747736 0.022502199 0.023671696
0001f0 90 6d 7b 3c 80 f1 a7 3c 5b 95 f1 3c 00 74 ca 3c
       0.015345946 0.020500898 0.029490164 0.024713516
000200 58 42 3f bc ca 62 a2 3b 48 94 07 39 81 d4 e4 3c
       -0.011673532 0.004955624 0.00012929842 0.027933361
000210 9a 1a 17 ba 82 e9 c2 bc 1b c6 ee bb de 60 a0 38
       -0.0005764157 -0.023792986 -0.0072867996 7.6474375e-05
000220 1c ad 0e 3c 2d b7 22 3b d6 df 8f 3b eb 36 6a 3c
       0.008708265 0.002482842 0.004390697 0.01429532
000230 81 cc 64 3c 2b b6 fc 3c 33 65 d0 3c e5 3a 87 bc
       0.013964773 0.030848583 0.02543888 -0.016507575
000240 af 0f aa 3c 77 81 9c 3c f7 bf 00 3b 0f c6 c0 bb
       0.020759432 0.019104702 0.001964567 -0.0058829854
000250 de e3 d7 3c 02 71 c7 3c cb 2b eb 3c b4 90 aa bc
       0.026353773 0.024345879 0.028707406 -0.020820953
000260 60 13 b2 bc 37 77 fc bb 61 27 cb 3c 39 73 bf 3b
       -0.021737754 -0.007704641 0.02479905 0.005842593
000270 f8 ab 02 39 c2 e1 9c bc e4 5d b4 3c 0e 6e b5 bb
       0.0001246183 -0.019150618 0.022017427 -0.005536801
000280 36 cc c8 bc 70 19 dc 3c b2 1f 22 3c 25 27 a5 3c
       -0.024511438 0.026867598 0.009895252 0.020160267
000290 b6 4d 1d bc 95 5d bb 3c 8d 12 21 bb 03 f6 da 3b
       -0.009601047 0.022871772 -0.0024577708 0.006682159
0002a0 55 14 02 3d 6d 66 b9 3c 00 12 cd 3c ba 14 6c 3c
       0.03175767 0.022631848 0.025032997 0.0144092385
0002b0 bb 5d e3 bc 13 47 55 bc a4 e2 c7 3c a3 22 ba 3c
       -0.027754655 -0.013017434 0.024400063 0.022721594
0002c0 f3 33 45 3b 0a ed 02 bc 1c a8 98 3c 93 ef c6 bc
       0.0030090779 -0.007991085 0.018634848 -0.02428416
0002d0 b9 97 a8 bc 3f f3 ef 3c c7 b1 05 3c 03 79 d8 bb
       -0.02058016 0.029290793 0.008160061 -0.0066062226
0002e0 8a ea 4d 3c 85 99 7f 3c 26 38 5b bc a3 ca 37 bc
       0.0125681255 0.015600567 -0.013380086 -0.011217746
0002f0 b5 a0 73 3c 28 cf 0b 3a 1f b2 f3 bc fa ac 97 3b
       0.0148698585 0.0005333298 -0.02974802 0.0046287747
000300 61 5c b6 3c 8d 2a 43 3c f0 01 ea 3c a2 43 ac 3c
       0.022260847 0.011912 0.028565377 0.021028344
000310 69 d5 e9 3b 5e 48 e9 3b 24 26 c4 bc 25 d5 d3 bc
       0.007136036 0.0071192225 -0.023943968 -0.025858471
000320 e7 ca be bc ce 1a 60 bc 47 fc a5 3a a3 a4 9d bc
       -0.02329011 -0.013678266 0.0012663685 -0.019243544
000330 38 56 c9 bb e9 ab 43 bc af 85 7d 3a 7c 47 c2 3c
       -0.0061443113 -0.011942842 0.00096711045 0.023715727
000340 29 d6 fd bc 3f 86 c0 3c 19 37 b9 3b 57 6b 91 bc
       -0.030985909 0.023501514 0.00565232 -0.017751379
000350 c9 5b 62 3a 33 d8 bd 3c b5 63 88 3b 79 19 a9 3c
       0.0008634893 0.02317438 0.0041622766 0.02064203
000360 a9 ee c4 bc c1 09 53 bc 06 1a 12 3c 4f d9 bb 3c
       -0.024039583 -0.0128807435 0.008917337 0.02293077
000370 7e cb c0 bc c0 b8 25 3c 86 05 db bc 22 c9 d8 bc
       -0.023534533 0.010114849 -0.026736032 -0.026463095
000380 7c 39 af bc 99 93 59 bc f1 73 e5 3c f7 af ed 3c
       -0.021389715 -0.013279819 0.028009387 0.02901457
000390 ef ef b1 b9 be e6 b5 bb 60 eb 70 bc b9 3d 1d b8
       -0.00033938835 -0.0055511883 -0.014704555 -3.74892e-05
0003a0 38 71 2a 3c eb 01 08 3c 76 cf d5 3c d5 1e b8 ba
       0.01040297 0.0083012385 0.026099902 -0.0014047275
0003b0 03 11 ff 3c 38 fd 9c 3c 3d 18 ff ba 76 44 9d 3b
       0.031136042 0.019163713 -0.001946218 0.004799421
0003c0 a6 80 80 3b 44 84 a8 bc d6 1a e9 bc 6f 24 bd bc
       0.003921586 -0.020570882 -0.02845518 -0.023088662
0003d0 dc 43 cc 3c 68 0c b9 bc f7 c7 de 3c ef b8 46 3c
       0.024934702 -0.022588924 0.02719496 0.012129053
0003e0 1f c3 9b bc a0 6f 1a 3b 83 d8 94 bc 58 63 8d bc
       -0.01901394 0.002356507 -0.018169647 -0.017259285
0003f0 b0 f7 00 bd ef 95 c0 bc 28 73 d7 bb 43 18 4f 3c
       -0.031486213 -0.023508994 -0.006575007 0.012640062
