CSNetPlus_model_mask/bin_0.04_0.00566.pth (torch, 169913 bytes, 1 tensors)

weight f4 [41, 1, 32, 32]
00000000: 0608 53bc d0ec b3bb 533b efb9 39e9 1d3c
00000010: b2fb 7b3c f3fb 323c addf 713c d1c7 2cbc
00000020: caf7 663b ee31 843b 9478 053c 1709 a6bc
00000030: 551c ae3c aa31 6b3b 4d80 ac3b 8b83 29bb
00000040: 3768 dabb 1089 283c 4431 dbbb e379 e43c
00000050: 8650 01bb 0b88 5e3c 052b 1a3b 9ee8 d6bc
00000060: bb2d cb3c b539 01bd adfa b93c a724 193c
00000070: 35a1 933c abfe 033c 45f5 96bb 5a0a a43a
00000080: 7c2e eb3b a569 d33c b07e 933c 0e61 a73c
00000090: 2a78 ebbc 2877 673b a789 adbc 1620 10bb
000000a0: a3a7 05ba e4d7 c63c 848d 2dbc a989 fe3c
000000b0: 15bd 9abc d532 26bc b5cd 5abc 5a3e b0bc
000000c0: 7582 21b9 a186 643c c145 bbbb a09d acbc
000000d0: d24a d0bc bf46 c0bb 9608 213c c207 b73c
000000e0: 4828 f2bb 3c13 d13c ae65 48bc 700d 223c
000000f0: 668f b0bb 9417 e83c 37cd dc3c d212 bb3c
00000100: b99a bcbb 2f77 9e3c 071b 04bc 1c7a b4bc
00000110: 2466 2f3c f193 a43c 6b30 b83c 933e 3ebc
00000120: 0bcc cebc 3dc8 98bc 045b 38bc 879b 253b
00000130: 03d9 0c3b 6754 f23c 74d3 ed3c 1a3f 223c
00000140: d4d7 a9bc 233f 19bc f640 943c be57 3fbb
00000150: 7594 e93c c1af b9ba a840 c13c 6a14 c0bc
00000160: 4341 193c aed9 bc3c baf4 7abc 7c6c f439
00000170: 9cb1 89bb 723a 7abc a371 aa3c 3e64 a9bc
00000180: fb68 8abc 1e7a b83c c091 c53b 29fc d6bc
00000190: 747c 7e3b e2be 23bc 0984 9eba 6b26 e7bb
000001a0: 5859 033d 7ef9 453c d0ef c7bb c9cd 253c
000001b0: 9934 0abc 4b53 013d 5dd9 8dbc 019d 2db9
000001c0: f09a b7bc 865d 8cbc 0fbb f2bc d6e7 a9bb
000001d0: b28a ba3c 2c81 b43c 4f65 f23c 9742 883c
000001e0: d54f b1bc bdf1 d1bc b911 ebbc 2760 9d3c
000001f0: 1b68 cebb 0caf edbc 7df5 91bc 2f18 95bc
00000200: fe73 77bc 6b22 213c 977f a43c 69a6 b13c
00000210: e9ef 84bc 6ca1 263c 02e9 4dbc 5bb0 ab3c
00000220: dc97 14bc 0add 5f3a 8bc7 ea3c 783a b7bb
00000230: e360 9aba fe56 d03c 8704 c73c 70e9 ba3c
00000240: 0a2b dfbc a875 993b c0e8 41bb b7c2 80bb
00000250: 7fef f73a 1473 6fbc 8bf6 463c e9b8 fdbc
00000260: 0c2b 8ebc ec0e 0dbc 0564 9b3b 274d a3bb
00000270: 4a8e f7bc ea36 9a3c 4805 c7bb 6913 823b
00000280: ccd8 023d 83d5 80bb 9fcd d7bc 9dc1 103c
00000290: 7140 d3bb a6ad 40bb b33e 0cbc 2e5e 53bb
000002a0: 6a78 ef3c 6045 c2bc e954 a53c 93ac eb3c
000002b0: 548a e9bc 4230 b1bc c2e8 f0bc d700 b8bc
000002c0: 478b 463c 6404 bf3c dfd0 b8bb df52 13bc
000002d0: f960 9ebc 2e10 ee3c 642e cbbc 0fdb ff3b
000002e0: 7b86 f53b 52c5 cd3c 2a81 a83c 80b0 d93c
000002f0: 3095 adbb 5c0d f33c 4561 d23c 60e0 37bb
00000300: beaf b6bc 7593 80bc 33f5 55bc 745b 35bc
00000310: 0d4c b2bc 4d34 57bb 1d38 b0bb 1088 f63c
00000320: 8162 3bbc 4d7c 973c aa05 4a3b 379e db3c
00000330: 709a df3c 3a70 f13c 6f3e e8bc 896a 66bc
00000340: a281 453c 453f cbbc bb24 42bb ceb1 90bc
00000350: cf2e a23c c288 abbc 3fa0 0cbc 1d55 db3c
00000360: 98c2 953b 4fc7 c8bc 4f64 5abc 5261 49bc
00000370: 8614 adbc c8f0 acbc f4a3 dc3c 61ec 4ebc
00000380: cbd4 843c 9517 98bb a0be 963c 3268 433c
00000390: 0554 bf3c 4a6c 98bc 4e29 cc3a 94cc 563c
000003a0: 5ef9 c23c f352 4dbc 5392 e43c 7bc3 d83c
000003b0: 0efb f0bc 1330 d3bc c0b4 04bc f968 6bbc
000003c0: 7a50 a73c 4544 993a 2362 a2bc 5f78 cc3c
000003d0: 9b6d 003d 97c9 c3bc 0ed2 e7bc 94d2 cdbb
000003e0: de88 dbbc b0e7 d73c fbce aeba 31d7 07bc
000003f0: 32e8 e33c 04b0 1fb7 9e16 6bbc 0830 d6bc
-0.012880331 -0.0054908767 -0.00045629832 0.009638124 0.015379833 0.010924327 0.014762801 -0.010545687
0.0035242909 0.0040342724 0.008146424 -0.020268006 0.021253744 0.0035887756 0.005264318 -0.002586576
-0.0066652554 0.0102865845 -0.0066892225 0.027890151 -0.0019731834 0.01358224 0.0023524177 -0.026233967
0.02480208 -0.031549174 0.02270254 0.0093471175 0.018021205 0.008056323 -0.004606875 0.0012515292
0.007177172 0.025807211 0.018004745 0.020432021 -0.028743822 0.0035318825 -0.021183802 -0.002199178
-0.0005098527 0.024272867 -0.010592822 0.0310715 -0.01888899 -0.010143955 -0.013354708 -0.021514107
-0.00015402756 0.013948114 -0.0057151024 -0.021071255 -0.025426302 -0.0058678086 0.009828707 0.022342566
-0.007390056 0.025521867 -0.012231274 0.009890899 -0.005388188 0.028331555 0.026953323 0.022836123
-0.005755749 0.01934394 -0.008063084 -0.022030883 0.010705505 0.020090075 0.022484025 -0.011611599
-0.02524378 -0.018650169 -0.011252169 0.0025269703 0.0021491654 0.029581262 0.029031493 0.00990274
-0.020732798 -0.009353432 0.018097382 -0.0029196586 0.028513173 -0.0014166759 0.0235904 -0.023447234
0.0093539385 0.023053017 -0.015317136 0.00046620134 -0.004202081 -0.0152727235 0.02080614 -0.020677682
-0.016895762 0.022519168 0.0060293376 -0.026243286 0.0038831504 -0.0099942405 -0.0012093793 -0.0070541403
0.032067627 0.012083409 -0.006101586 0.010119864 -0.008435392 0.031573575 -0.017315561 -0.00016557054
-0.022412747 -0.01713444 -0.029630212 -0.0051851077 0.022771213 0.02203425 0.029589323 0.016633315
-0.021644512 -0.025627965 -0.028694974 0.019210888 -0.0062990314 -0.029014133 -0.017817253 -0.018200008
-0.015103338 0.009834866 0.02008037 0.021685796 -0.01622768 0.010170322 -0.01256776 0.020958116
-0.009069409 0.0008539712 0.028659603 -0.005591687 -0.0011778142 0.025432106 0.024294151 0.02281639
-0.027242202 0.004683215 -0.0029588193 -0.003929462 0.001891598 -0.014614839 0.012143741 -0.030971961
-0.01735451 -0.008609515 0.004742148 -0.0049835625 -0.030219216 0.018825013 -0.0060736276 0.003969599
0.031945035 -0.0039317026 -0.026343165 0.0088352235 -0.006446891 -0.0029400378 -0.0085598705 -0.003225218
0.029232223 -0.023714721 0.02018209 0.028768813 -0.028508343 -0.021629456 -0.029407863 -0.022461338
0.012118167 0.023317523 -0.0056401337 -0.008991926 -0.01933335 0.02906045 -0.024802394 0.0078080962
0.007492838 0.025118504 0.020569403 0.02657342 -0.0052973256 0.029669456 0.025681147 -0.0028057322
-0.022300597 -0.015695313 -0.013058948 -0.011069167 -0.02176478 -0.003283757 -0.005377783 0.030094177
-0.011437059 0.018491888 0.003082613 0.026808841 0.027295321 0.02947246 -0.028350083 -0.014063486
0.012054833 -0.024810443 -0.0029623944 -0.017662909 0.01979771 -0.020939235 -0.0085831275 0.026773984
0.0045703165 -0.0245091 -0.0133295795 -0.012291269 -0.02112795 -0.021110907 0.026933648 -0.012629599
0.016214749 -0.004641483 0.018401444 0.011926698 0.023355493 -0.018606324 0.0015576275 0.013110299
0.023800548 -0.012531984 0.027901804 0.0264604 -0.029416587 -0.02577976 -0.008099735 -0.014368289
0.020424116 0.001169332 -0.019822186 0.024959741 0.031354528 -0.023899836 -0.028298404 -0.0062812064
-0.026798662 0.026355594 -0.0013336831 -0.008291052 0.02782068 -9.51812e-06 -0.014348654 -0.02614595
