CSNetPlus_model_mask/bin_0.01_458.pth (torch, 42937 bytes, 1 tensors)

weight f4 [10, 1, 32, 32]
000000 e4 d7 81 3a f7 94 f4 bb 99 d6 fa ba 02 22 11 bc
       0.0009906259 -0.007464047 -0.0019137441 -0.008858206
000010 8f dd f2 3c 7c 5a dc 3a 8c 59 ac 3b e8 89 f8 3b
       0.029646663 0.0016811634 0.0052596983 0.007584799
000020 b0 9b 46 3b 83 4d bf 3c 98 15 8b bb 90 e7 c2 bc
       0.00303052 0.02335239 -0.0042445175 -0.023792058
000030 86 4f 87 3c 0a eb 52 3c 9a 82 ab 3b 0d a4 df 3a
       0.016517412 0.0128734205 0.005234075 0.0017062441
000040 19 d4 33 bc 42 e3 aa bc 90 af 89 3a f0 1e 0d 3b
       -0.010975861 -0.020860318 0.0010504592 0.0021533333
000050 dc 20 ba 3c c5 d3 f9 3c 8b 46 5f ba d2 e0 a4 bc
       0.022720747 0.030496487 -0.00085172866 -0.020126734
000060 c5 8c c8 3c 1c ea ab bc 6b 8e ae bc 48 4f bf 3b
       0.024481187 -0.020985655 -0.021308145 0.0058383085
000070 63 be c1 3b c6 7c 9e bb 58 b2 34 bc eb 71 cd 3c
       0.0059125884 -0.0048366515 -0.011028849 0.025078734
000080 18 0d f8 bc ff e1 fa bc 11 a0 39 3c 0c 2c a4 3c
       -0.030279681 -0.030625341 0.011329667 0.020040534
000090 98 19 c0 bb 41 32 03 3c c2 8f 3f 3c a3 c6 d4 3c
       -0.005862426 0.008007587 0.011691989 0.025973624
0000a0 5e 62 c1 bc 9c 15 fb 3a b7 96 e2 3c d1 e8 bd bb
       -0.023606475 0.001915622 0.027659757 -0.005795576
0000b0 9a 0b ab ba e9 ae 49 bb aa 5a b2 bc 35 5a e5 3c
       -0.0013049722 -0.003077442 -0.021771748 0.027997116
0000c0 08 92 71 3c 36 96 f4 bc 5f 7c 9b 3c 64 4a 7a 3c
       0.014744289 -0.029856782 0.018980203 0.015276525
0000d0 5d 0d 9b 3b 32 2a ca bb 21 3f e9 bc 4d d9 c6 bc
       0.0047318176 -0.006169581 -0.028472485 -0.024273539
0000e0 4c 25 57 bc fb 39 85 3c cd d4 d5 bb d3 8b 8e 3c
       -0.013131451 0.016262999 -0.006525612 0.017400658
0000f0 fe 75 15 bb 35 42 e7 bc 1d cd f4 3c bd 9e 9c 3c
       -0.0022805925 -0.028229812 0.029882962 0.019118661
000100 88 79 d4 3c a8 26 61 3c a1 ff f4 3c 36 9a a7 bc
       0.025936857 0.0137421265 0.02990705 -0.020459276
000110 5b c7 83 3c 51 73 c5 3b 87 27 e4 3c 36 6f d5 3c
       0.016086271 0.0060257097 0.02785088 0.026054006
000120 f5 00 d4 3c a4 f6 3f 3c 08 ae 9e bc c0 55 fb 3b
       0.025879363 0.011716519 -0.019370094 0.0076701343
000130 bf d4 27 bc ce db 95 bc b1 74 ea bc 31 93 bc bc
       -0.010243594 -0.018293288 -0.028620096 -0.023019405
000140 18 6a 34 bc 05 e6 b6 bb 1a 29 ca 3c e5 3e cc bc
       -0.011011623 -0.0055816197 0.024677802 -0.024932334
000150 0f aa 75 3c 98 6b a6 3c 9b de c9 3b 47 f8 fd bb
       0.014994158 0.020314977 0.00616057 -0.007750544
000160 2a d9 f0 3c df d6 33 3c 92 fc bc 3c 53 9e ae b9
       0.029400427 0.010976522 0.023069654 -0.00033305827
000170 da 8f 23 3c 77 3c b0 bc 74 db d2 bb 27 af aa bc
       0.009983027 -0.021513207 -0.0064348523 -0.020835472
000180 d5 e7 db bc ee 37 5e 3c e3 00 93 3b 1f 76 3f bb
       -0.026843945 0.013563139 0.0044861897 -0.0029214693
000190 9a 84 ad bc 14 78 c7 3c c2 99 e1 bb df 7e ee bc
       -0.021181393 0.02434925 -0.0068847844 -0.029113231
0001a0 26 05 3d bc 77 a9 fa bc 1a 30 79 3c c1 91 63 3c
       -0.011536872 -0.030598385 0.015209222 0.013889731
0001b0 38 37 91 bc 7a 19 59 3b bf 94 8a bb c0 98 f0 3c
       -0.017726526 0.0033126757 -0.0042291577 0.029369712
0001c0 d3 ee f9 bb a4 7d 3b 3c c4 84 14 3c 89 38 8f 3c
       -0.007627347 0.011443529 0.009064857 0.017483013
0001d0 3d 14 8a 3b f9 f9 be bc 63 ea de 3c 49 e4 0c 3c
       0.0042138384 -0.023312556 0.027211374 0.008599349
0001e0 a7 da d5 bb b6 e1 61 bc cb aa bf 3c c3 51 c9 3c
       -0.0065263095 -0.013786724 0.02339687 0.02457512
0001f0 9e 48 84 3c bd 4d ad 3c a2 37 f6 3c 5e 91 ce 3c
       0.016147908 0.021155233 0.030055825 0.0252158
000200 b5 89 55 bc 92 0a 5e 3b ac fe d8 ba bf 1e d4 3c
       -0.01303332 0.0033880812 -0.001655539 0.025893567
000210 38 93 30 bb f4 bc d3 bc b2 20 18 bc 2a 7a f1 ba
       -0.0026943218 -0.025846936 -0.009285139 -0.0018423249
000220 84 fa e2 3b 18 a8 5e 3a bc 65 3b 3b ad ee 53 3c
       0.0069268364 0.0008493676 0.0028594574 0.012935323
000230 de 39 52 3c 7f a0 f5 3c 7f c0 ca 3c a2 89 8c bc
       0.012831179 0.029983757 0.024749992 -0.017155472
000240 7e c0 a5 3c 29 3e 99 3c c3 bc e4 3a f6 e9 c1 bb
       0.020233389 0.018706398 0.0017451275 -0.005917783
000250 32 81 d8 3c 23 83 c9 3c a4 6b ef 3c 9e 7a a3 bc
       0.026428793 0.024598664 0.029226132 -0.01995593
000260 89 99 a9 bc 97 95 da bb 43 5a d3 3c 84 d4 e1 3b
       -0.020703094 -0.0066706645 0.025799876 0.006891789
000270 6c 29 96 3a 54 89 95 bc af 3f ba 3c 45 63 a0 bb
       0.0011456436 -0.01825396 0.022735445 -0.0048946464
000280 9d d9 d3 bc 81 96 cf 3c fb fe 05 3c 25 60 95 3c
       -0.025860602 0.02534032 0.008178468 0.018234322
000290 a7 a7 3e bc 5d 00 ab 3c 74 31 90 bb 50 a6 9d 3b
       -0.011636651 0.020874197 -0.0044004265 0.0048110858
0002a0 26 ce f5 3c 09 d9 ab 3c ae 47 c0 3c 1e 20 57 3c
       0.030005526 0.020977514 0.02347168 0.013130216
0002b0 d4 b8 eb bc 00 18 62 bc 16 79 c2 3c b7 1b b5 3c
       -0.028774656 -0.013799667 0.023739379 0.022107942
0002c0 25 ce 29 3b 26 d7 07 bc 97 2b 97 3c 2f 22 c6 bc
       0.0025910225 -0.0082910415 0.018453402 -0.024186222
0002d0 e6 fe a6 bc f9 16 f2 3c cd 74 0e 3c 19 eb bb bb
       -0.020385217 0.02955197 0.00869484 -0.005734813
0002e0 22 71 60 3c 8d e7 89 3c 50 1d 46 bc 26 49 22 bc
       0.013698848 0.016834045 -0.01209195 -0.009905135
0002f0 bb 00 84 3c 49 7b d1 3a b0 ee eb bc 87 7f b3 3b
       0.01611363 0.0015982176 -0.028800339 0.005477849
000300 84 b4 ac 3c 3f e4 2c 3c 88 ea dc 3c 09 ff 9d 3c
       0.02108217 0.010552465 0.026967302 0.01928665
000310 7f 27 b0 3b 44 23 b1 3b b6 87 d1 bc 05 93 e0 bc
       0.005375802 0.0054058153 -0.025577407 -0.027413854
000320 25 25 cb bc 65 27 77 bc 45 65 03 b8 d7 77 a6 bc
       -0.024797985 -0.015085076 -3.132715e-05 -0.020320816
000330 84 7d e5 bb ab 94 4d bc 5c fa f6 39 1d a9 be 3c
       -0.007003488 -0.012547652 0.0004710731 0.023273999
000340 c2 9b ff bc f5 44 bf 3c a0 72 b8 3b 35 da 8f bc
       -0.0312022 0.023348311 0.0056288987 -0.017560104
000350 dd d8 95 3a 8f 4e c1 3c b7 5a 9c 3b 2c f3 b0 3c
       0.0011432428 0.02359703 0.0047715562 0.021600328
000360 54 1e ba bc a3 75 3a bc 4d 22 2b 3c 52 41 c8 3c
       -0.02271954 -0.011380586 0.01044519 0.02444521
000370 06 ce b4 bc d3 2e 3a 3c a8 e3 d1 bc bd 49 d0 bc
       -0.022070896 0.011363703 -0.02562125 -0.025425786
000380 de d9 b6 bc 85 dd 6a bc d8 14 db 3c 03 ea e1 3c
       -0.022320684 -0.014335041 0.026743338 0.027577406
000390 65 5d eb ba 45 14 e3 bb 60 5b 83 bc db 25 af ba
       -0.0017956911 -0.0069299066 -0.016034782 -0.0013362722
0003a0 5a 60 15 3c 1a 83 e9 3b f8 3f cd 3c 6b 7d 12 bb
       0.00911721 0.007126224 0.025054917 -0.0022352587
0003b0 6d 5a f9 3c c4 2b 99 3c 3b ab 0f bb 0d 0c 98 3b
       0.030438626 0.018697627 -0.002192213 0.0046401084
0003c0 dc 14 7f 3b b5 8f a7 bc 62 55 e7 bc ce f2 ba bc
       0.0038922345 -0.020454267 -0.028238956 -0.022820856
0003d0 78 32 cf 3c d7 7b b4 bc c8 2d e4 3c ac 6e 57 3c
       0.02529262 -0.022031708 0.027853861 0.013148945
0003e0 d0 58 90 bc 7d c2 80 3b b9 50 87 bc 68 82 7f bc
       -0.017620474 0.003929435 -0.016517984 -0.015595056
0003f0 5b fa f4 bc 4c e4 b4 bc a8 d2 af bb c6 58 61 3c
       -0.029904535 -0.022081517 -0.0053656884 0.013754075
